gnn_model.pt (torch, 90203 bytes, 13 tensors)

layers.0.weight f4 [8, 64]
-0.20586944 -0.25206506 -0.09505019 -0.14680947 -0.0790005 -0.21070583 0.17946245 0.14793518
-0.14835532 0.17465395 0.050408874 -0.28735733 -0.10615632 0.041493226 -0.11588073 0.24053933
-0.2164901 0.1787481 -0.076400414 0.19134364 -0.10068788 0.16343978 0.16752677 -0.089372754
-0.072174154 0.15148021 0.23828095 0.023084637 -0.13396697 0.20585188 -0.20313221 0.24476802
0.16809179 0.2743834 0.2165682 0.27639607 -0.15828627 0.12669282 -0.07428804 -0.2076038
0.20506336 0.09376358 -0.1257469 -0.05170579 0.112138264 0.19198672 0.09895877 -0.20378858
-0.0015663609 -0.143621 -0.050529078 0.2533274 0.1864328 0.22855902 0.2165982 -0.11687632
0.046514608 0.036256157 0.19630902 0.14374663 -0.17351748 -0.20302942 -0.08665264 -0.077986605
-0.23098025 0.24008764 0.19729225 -0.09636993 0.0021473905 -0.041420914 0.25572765 -0.22254032
0.026944846 0.10395647 0.013137521 0.0007792769 0.055681873 0.1155991 -0.11815541 -0.20766632
-0.14109991 -0.036223274 0.24661866 0.01962993 -0.012781552 -0.18157333 -0.24576424 -0.120970786
-0.20850015 -0.0751295 0.23923738 0.13411236 0.208663 0.19170241 -0.2419966 -0.2807202
0.06696633 0.2549393 0.1244435 0.19037731 0.21356781 0.03609052 0.26017267 0.24462578
-0.15501991 -0.17171931 -0.0020581237 0.23383278 0.2047329 -0.17064382 -0.18208092 0.058903355
0.11674057 0.19753787 -0.24097665 0.08528858 -0.21695773 0.032430843 -0.1081585 -0.22259675
0.27644736 0.26991534 -0.22038975 -0.2544682 0.19503298 -0.2273994 0.21263364 -0.1932212
-0.056672134 0.2554703 -0.019807253 -0.13568734 -0.0028672365 -0.112189755 -0.03160779 0.24300998
0.2837795 -0.08588275 0.07238167 0.2602946 -0.12731081 0.03975452 -0.1986675 0.116697
0.055716354 0.09610313 -0.05355905 0.054030348 0.2205208 -0.209455 -0.11699536 0.2831018
-0.029571468 0.18641594 -0.046638884 -0.2441284 0.03571338 0.1441502 0.2190999 0.07188275
0.07478472 -0.039106894 -0.025211243 0.2459316 0.27345857 -0.1504251 0.15868169 0.12890154
-0.0062005697 -0.23711136 -0.18936549 -0.21097845 -0.09225246 0.23310627 -0.025532752 0.14593935
-0.22826275 -0.27586082 0.1635394 -0.24688314 0.21825626 -0.2670503 -0.18268579 -0.042429347
-0.019223392 -0.15772764 0.2503458 0.1447075 -0.15042713 -0.00837135 -0.23589091 0.27940902
-0.14267677 0.18468209 -0.20677383 0.2362083 -0.15058915 0.058170844 0.22855659 0.23152868
0.19185549 -0.2157048 -0.24387121 0.270894 0.12189953 0.036856823 0.20754124 0.27325913
-0.16910763 0.030843638 -0.27154818 -0.27844548 0.22341233 0.15247457 -0.19999999 -0.18600175
-0.08168539 -0.07757503 0.21191755 0.24986501 -0.28715307 -0.16807112 0.24020827 0.27755678
-0.00028741002 0.06677293 0.21297312 0.036412627 -0.22226728 -0.23629858 0.22350577 -0.18831895
-0.085333414 0.18162079 -0.1303432 -0.13742325 0.058197744 -0.023368636 -0.08483797 0.12073324
-0.09938108 0.1673076 -0.10420358 0.20436893 -0.061952565 0.2093889 0.056088492 0.1789049
0.17925069 0.18207498 0.0956112 -0.0477497 0.14520997 -0.2549657 0.23958722 -0.13335893
00000000: 70cf 52be ac0e 81be ada9 c2bd 3955 16be
00000010: 04cb a1bd 45c3 57be 01c5 373e 527c 173e
00000020: 75ea 17be 7cd8 323e 8979 4e3d 8020 93be
00000030: 7c68 d9bd cdf4 293d e052 edbd f14f 763e
00000040: 95af 5dbe be09 373e d277 9cbd 96ef 433e
00000050: 7235 cebd c25c 273e 238c 2b3e 1009 b7bd
00000060: 0bd0 93bd a11d 1b3e ecff 733e fe1b bd3c
00000070: a32e 09be d6ca 523e e401 50be 78a4 7a3e
00000080: 4120 2c3e fb7b 8c3e 0ec4 5d3e c983 8d3e
00000090: cc15 22be c3bb 013e 5424 98bd 1796 54be
000000a0: 21fc 513e 1f07 c03d ccc3 00be 73c9 53bd
000000b0: bfa8 e53d 2b98 443e e5aa ca3d f4ad 50be
000000c0: 5a4e cdba 6211 13be 94f7 4ebd 21b4 813e
000000d0: 3de8 3e3e 600b 6a3e ebcb 5d3e da5c efbd
000000e0: 1a86 3e3d 5681 143d 3b05 493e 5132 133e
000000f0: 91ae 31be f2e6 4fbe f076 b1bd 71b7 9fbd
00000100: 1686 6cbe 89d9 753e fb06 4a3e 995d c5bd
00000110: 3cbb 0c3b faa8 29bd bcee 823e 9ce1 63be
00000120: 70bb dc3c 21e7 d43d c23e 573c 6348 4c3a
00000130: ad12 643d 39bf ec3d 77fb f1bd 7ba6 54be
00000140: 7f7c 10be db5e 14bd 9a89 7c3e f2ce a03c
00000150: b769 51bc 5cee 39be 9fa9 7bbe 88bf f7bd
00000160: 1081 55be 7fdd 99bd a5fa 743e c054 093e
00000170: c1ab 553e a34d 443e f5cd 77be 8fba 8fbe
00000180: a525 893d 6787 823e 3cdc fe3d 45f2 423e
00000190: 85b1 5a3e a7d3 133d 5a35 853e 2e7f 7a3e
000001a0: 8abd 1ebe 30d7 2fbe 96e1 06bb dc71 6f3e
000001b0: 80a5 513e 41bd 2ebe 6c73 3abe a544 713d
000001c0: ae15 ef3d 5e47 4a3e 95c2 76be c7ab ae3d
000001d0: 2b2a 5ebe 34d6 043d 3482 ddbd 67f0 63be
000001e0: 828a 8d3e 5832 8a3e daad 61be a849 82be
000001f0: bab6 473e 63db 68be a2bc 593e c7db 45be
00000200: 0a21 68bd 01cd 823e d242 a2bc 9ff1 0abe
00000210: 3fe8 3bbb bec3 e5bd 2c77 01bd 9cd7 783e
00000220: 8c4b 913e 4ce3 afbd d73c 943d 5545 853e
00000230: c45d 02be a3d5 223d 7e6f 4bbe d6fe ee3d
00000240: d536 643d b8d1 c43d bc60 5bbd ed4e 5d3d
00000250: 34d0 613e 5f7b 56be 439b efbd b8f2 903e
00000260: dd3f f2bc d2e3 3e3e 6a08 3fbd ccfc 79be
00000270: 3148 123d 1c9c 133e b95b 603e 4337 933d
00000280: bb28 993d 8d2e 20bd cf87 cebc 7ed5 7b3e
00000290: c302 8c3e 0a09 1abe 747d 223e c4fe 033e
000002a0: 262e cbbb 52cd 72be 07e9 41be bc0a 58be
000002b0: dcee bcbd 69b3 6e3e 102a d1bc 2071 153e
000002c0: b6bd 69be a13d 8dbe df76 273e efce 7cbe
000002d0: 927e 5f3e d1ba 88be fc11 3bbe 65ca 2dbd
000002e0: 607a 9dbc 5b83 21be 532d 803e 342e 143e
000002f0: 9209 1abe fd27 09bc 638d 71be b30e 8f3e
00000300: dc19 12be 4d1d 3d3e 85bc 53be 97e0 713e
00000310: 0b34 1abe 8d44 6e3d bd0a 6a3e db15 6d3e
00000320: c475 443e b8e1 5cbe 60b9 79be 9eb2 8a3e
00000330: 76a6 f93d 2ef7 163d b185 543e 9fe8 8b3e
00000340: 8d2a 2dbe ccab fc3c 5d08 8bbe 6890 8ebe
00000350: 34c6 643e 4b22 1c3e cccc 4cbe 3e77 3ebe
00000360: ab4a a7bd a8df 9ebd ea00 593e 9ddc 7f3e
00000370: ba05 93be d61a 2cbe 28f9 753e ec1b 8e3e
00000380: 85af 96b9 3fc0 883d a015 5a3e 6825 153d
00000390: 099a 63be 41f8 71be b2de 643e afd6 40be
000003a0: 49c3 aebd cdfa 393e b078 05be aeb8 0cbe
000003b0: c260 6e3d 956f bfbc 88bf adbd fd42 f73d
000003c0: 4f88 cbbd af52 2b3e b068 d5bd 1746 513e
000003d0: f9c1 7dbd 0b6a 563e 0cbd 653d d932 373e
000003e0: 7e8d 373e dd71 3a3e cecf c33d 3095 43bd
000003f0: ecb1 143e dd8a 82be 5a56 753e 3e8f 08be

layers.0.bias f4 [64]
0.0 -8.86695e-09 3.1916847e-09 0.0 1.513258e-14 0.0 -7.494211e-09 0.0
1.4268963e-08 1.2740869e-08 -4.6787875e-08 1.8805211e-15 -2.5518338e-08 -3.340514e-08 0.0 8.493339e-10
0.0 -1.4874478e-09 4.6560828e-08 1.1742836e-08 0.0 0.0 0.0 0.0
0.0 -8.8300356e-10 2.9221853e-08 6.32797e-08 7.682586e-09 -1.2528745e-08 0.0 0.0
-9.607989e-09 -2.6649998e-09 -1.1681135e-10 -1.3342161e-08 -3.312355e-08 -5.8686385e-09 2.3976837e-08 6.8227656e-08
-5.718427e-10 0.0 0.0 -1.2985575e-08 -2.8619372e-08 8.9037405e-10 0.0 -1.1537527e-08
2.3887175e-08 1.8308958e-08 0.0 -1.845475e-08 0.0 9.659086e-09 -1.6522742e-09 0.0
4.085656e-08 -6.468498e-10 0.0 0.0 -2.257114e-08 0.0 2.3228248e-08 0.0
00000000: 0000 0000 4255 18b2 b654 5b31 0000 0000
00000010: 5b4d 8828 0000 0000 e3bf 00b2 0000 0000
00000020: 9023 7532 efe2 5a32 d0f3 48b3 7e81 0727
00000030: 6b33 dbb2 5779 0fb3 0000 0000 8f76 6930
00000040: 0000 0000 eb6e ccb0 2cfa 4733 8abd 4932
00000050: 0000 0000 0000 0000 0000 0000 0000 0000
00000060: 0000 0000 dab7 72b0 8903 fb32 62e4 8733
00000070: 5ffc 0332 013e 57b2 0000 0000 0000 0000
00000080: 6210 25b2 2c23 37b1 796f 00af 7237 65b2
00000090: ba43 0eb3 17a5 c9b1 9ff5 cd32 8d84 9233
000000a0: da2f 1db0 0000 0000 0000 0000 2a17 5fb2
000000b0: aad6 f5b2 81be 7430 0000 0000 9536 46b2
000000c0: 7430 cd32 d345 9d32 0000 0000 6d86 9eb2
000000d0: 0000 0000 1cf1 2532 3b16 e3b0 0000 0000
000000e0: 437a 2f33 02ce 31b0 0000 0000 0000 0000
000000f0: 76e2 c1b2 0000 0000 7587 c732 0000 0000

layers.1.weight f4 [64, 64]
-0.17074738 0.13241678 0.17132275 -0.18811028 -0.16514637 -0.099415384 0.08586412 0.018746521
-0.115888625 0.061486572 -0.05330979 -0.12090773 -0.19038095 0.18809205 0.0688615 0.008263191
-0.046751194 0.03638109 -0.20982732 -0.14678223 0.17731194 -0.11430934 -0.08235262 -0.13379732
0.15287939 0.12444091 -0.06658863 0.08649927 -0.11183154 -0.10623278 -0.19696471 -0.00845537
-0.20975631 0.20447999 0.14847761 0.06501505 -0.057636507 0.17372547 0.023665542 0.10453187
-0.15714687 0.14662752 0.17983015 -0.031600513 -0.12345235 -0.03932325 -0.14469814 0.05598049
-0.11284846 -0.0896022 0.098162614 -0.13416521 -0.055496585 -0.10992421 0.008066781 0.21348052
-0.018794373 -0.17668337 -0.20690805 -0.005876916 -0.016085632 -0.17298351 -0.13106681 0.03250501
0.14714167 -0.0896206 -0.06534105 0.040317938 0.07816717 -0.21305773 0.049953412 -0.14837697
0.07076983 -0.07575542 -0.19503318 0.049536277 0.16842616 0.114653975 -0.15813844 0.19967404
0.01566313 0.07342546 0.1751021 -0.034206506 0.0055091707 -0.18615161 -0.17563447 -0.02856973
-0.10809602 0.08749485 -0.047376852 -0.18961103 -0.05046967 0.115620025 -0.15274991 -0.18089727
0.099270955 -0.02883801 -0.14496976 0.14969039 -0.11182999 -0.17791538 -0.119088955 -0.20914084
0.1942921 -0.14350672 0.1979817 0.116926804 0.18197502 -0.14098683 -0.041287154 0.18622062
0.19653064 -0.21087927 0.11972385 -0.11693012 0.2107002 0.03310505 -0.21205644 -0.20590693
-0.19603053 0.13592722 0.16900474 0.21318199 -0.001989095 -0.0059434026 -0.12027579 0.06519975
-0.0061420575 0.06424941 -0.19458866 -0.043212842 0.14628816 -0.11032042 -0.10805163 0.007676741
0.04353013 -0.11648073 0.008084847 -0.17972635 0.049381897 0.0665015 -0.06344597 0.14624345
0.1819235 0.0053231977 -0.009957206 0.045084152 -0.13350981 0.13602398 0.14954676 -0.21127394
-0.1703346 -0.07668397 -0.05189387 0.19630508 0.09557057 -0.12053195 0.026491012 -0.06888493
0.17280097 -0.061125908 0.033740923 0.09955706 -0.098366976 -0.02381276 -0.12146912 0.049037963
0.16125199 -0.17571415 0.18729971 -0.10472769 -0.12189942 -0.15247157 0.11576572 0.10164329
-0.045386847 -0.10425981 0.1734779 0.13669635 0.19817904 -0.16781369 0.08811417 -0.028462559
0.16750856 0.061724108 0.027712379 -0.08517517 0.12777779 -0.16106799 0.0046189576 0.1142399
-0.1690427 -0.08885834 0.061070185 0.0014353733 0.026416093 0.1284726 0.13062772 -0.15568964
0.06660533 0.17976421 0.11378016 0.034989256 0.15815231 -0.0174602 0.01600485 0.06447114
-0.04508805 -0.0313554 -0.16740282 -0.1736642 0.13688667 -0.18666635 0.06336739 0.12827964
-0.1932393 -0.14555435 -0.21303308 -0.025123343 -0.050497297 0.028969897 0.058033563 -0.1780023
0.1855074 -0.10820406 -0.052617967 0.054092336 -0.19986132 -0.04361928 -0.12666324 0.15232229
-0.14859201 0.1747202 0.029306326 0.0077875466 0.066327855 -0.11512879 -0.21624422 -0.13354304
-0.1626958 0.12467268 -0.027216705 -0.19220853 0.094814986 0.14625856 -0.19115673 -0.15123354
0.048624605 -0.1743816 -0.16180217 0.113674425 0.0073201614 0.048246417 -0.094138876 0.04407288
00000000: 67d8 2ebe 4498 073e 3b6f 2f3e fb9f 40be
00000010: 211c 29be 4b9a cbbd 87d9 af3d 4e92 993c
00000020: 0457 edbd 58d9 7b3d 5e5b 5abd 799e f7bd
00000030: 39f3 42be 349b 403e 4207 8d3d 5662 073c
00000040: 2e7e 3fbd 5604 153d f9dc 56be 154e 16be
00000050: 4391 353e 041b eabd 7ea8 a8bd 2a02 09be
00000060: 6a8c 1c3e e0da fe3d 9f5f 88bd 8726 b13d
00000070: ef07 e5bd 9290 d9bd 1eb1 49be 6488 0abc
00000080: 5cca 56be 3463 513e 840a 183e 9c26 853d
00000090: 4214 6cbd 17e5 313e 3dde c13c ce14 d63d
000000a0: 1ceb 20be 8625 163e 6525 383e 8a6f 01bd
000000b0: 96d4 fcbd 6b11 21bd c02b 14be cc4b 653d
000000c0: 181d e7bd 5c81 b7bd 7b09 c93d 9b62 09be
000000d0: 6350 63bd f21f e1bd 882a 043c a39a 5a3e
000000e0: a8f6 99bc 7cec 34be b4df 53be 2593 c0bb
000000f0: 04c6 83bc 9722 31be 6136 06be f923 053d
00000100: 4eac 163e 018b b7bd 87d1 85bd 6c24 253d
00000110: 1c16 a03d ce2b 5abe f39b 4c3d 22f0 17be
00000120: c6ef 903d a825 9bbd c7b6 47be 8de6 4a3d
00000130: e877 2c3e b4cf ea3d 0bef 21be 5a77 4c3e
00000140: f74f 803c 1660 963d f74d 333e 1f1c 0cbd
00000150: 4686 b43b 879e 3ebe 86d9 33be 110b eabc
00000160: 7261 ddbd 8030 b33d 3b0e 42bd 6529 42be
00000170: 49b9 4ebd 31ca ec3d 796a 1cbe 223d 39be
00000180: 924e cb3d b13d ecbc f472 14be 7048 193e
00000190: 1f07 e5bd 732f 36be e9e4 f3bd 0429 56be
000001a0: 82f4 463e 6df3 12be b7bb 4a3e 5277 ef3d
000001b0: a957 3a3e da5e 10be b81c 29bd 9eb0 3e3e
000001c0: 543f 493e bcf0 57be c731 f53d 0f79 efbd
000001d0: cbc1 573e 2999 073d 5325 59be 44d9 52be
000001e0: 3abc 48be 8130 0b3e 940f 2d3e 614c 5a3e
000001f0: 7a5b 02bb e0c0 c2bb 2753 f6bd 7287 853d
00000200: 5043 c9bb 3295 833d 4042 47be f3ff 30bd
00000210: 90cc 153e acef e1bd 2c4a ddbd 2c8d fb3b
00000220: a64c 323d 738d eebd 4e76 043c 2f0a 38be
00000230: ac44 4a3d f031 883d f6ef 81bd d8c0 153e
00000240: 274a 3a3e 386e ae3b 8d23 23bc 29aa 383d
00000250: ccb6 08be df49 0b3e c922 193e 3258 58be
00000260: 326c 2ebe 7c0c 9dbd ab8e 54bd 3304 493e
00000270: 81ba c33d 74d9 f6bd ae03 d93c 8b13 8dbd
00000280: bdf2 303e 295f 7abd ec33 0a3d 92e4 cb3d
00000290: a074 c9bd fa12 c3bc cdc4 f8bd 08dc 483d
000002a0: 3e1f 253e 69ee 33be 7fcb 3f3e 797b d6bd
000002b0: 67a6 f9bd 8221 1cbe 9416 ed3d 5b2a d03d
000002c0: 8fe7 39bd 2b86 d5bd 31a4 313e 21fa 0b3e
000002d0: 72ef 4a3e 5ad7 2bbe 3475 b43d 502a e9bc
000002e0: 5d87 2b3e 6bd2 7c3d 1205 e33c 5270 aebd
000002f0: 2ed8 023e 02ef 24be a05a 973b 9cf6 e93d
00000300: 8819 2dbe 5dfb b5bd bb24 7a3d 2323 bc3a
00000310: 9066 d83c 528e 033e 46c3 053e 1b6d 1fbe
00000320: 6068 883d 1c14 383e 9305 e93d e550 0f3d
00000330: aef2 213e b108 8fbc 9a1c 833c 7209 843d
00000340: 3fae 38bd 856e 00bd a56b 2bbe 07d5 31be
00000350: 052c 0c3e 7725 3fbe c3c6 813d bd5b 033e
00000360: 86e0 45be 330c 15be 5825 5abe 78cf cdbc
00000370: 41d6 4ebd 4752 ed3c 9ab4 6d3d 3c46 36be
00000380: a7f5 3d3e 179a ddbd f085 57bd ed8f 5d3d
00000390: 72a8 4cbe 21aa 32bd 02b4 01be 60fa 1b3e
000003a0: 8128 18be dae9 323e d213 f03c ad2e ff3b
000003b0: e6d6 873d a5c8 ebbd 206f 5dbe 82bf 08be
000003c0: ba99 26be 6454 ff3d 91f5 debc 50d2 44be
000003d0: 5c2e c23d cec4 153e 97be 43be f7dc 1abe
000003e0: 982a 473d 1791 32be 78af 25be 23ce e83d
000003f0: f7dd ef3b 099e 453d e2cb c0bd c485 343d

layers.1.bias f4 [64]
0.0 0.0 0.0 -3.321243e-08 7.752562e-08 0.0 0.0 9.258517e-08
6.810899e-08 5.9095033e-08 0.0 0.0 2.5076469e-08 0.0 -3.654042e-08 -2.984538e-08
0.0 0.0 -3.338324e-08 0.0 1.09059854e-07 0.0 5.357597e-08 1.00932205e-07
0.0 0.0 8.568687e-08 6.1972656e-08 4.9466067e-09 0.0 -3.8607237e-08 -1.0216942e-07
0.0 0.0 2.2320792e-09 5.330728e-08 -9.64107e-09 6.246989e-09 -1.8096333e-08 -1.08516225e-07
0.0 0.0 2.2176604e-11 6.305311e-08 -1.2569896e-07 0.0 0.0 3.2466325e-08
0.0 0.0 0.0 0.0 -3.5928904e-09 -2.3553124e-08 2.6603388e-08 0.0
0.0 -6.514916e-08 0.0 -5.1177537e-08 9.2168015e-09 9.956924e-08 0.0 3.6847997e-08
00000000: 0000 0000 0000 0000 0000 0000 74a5 0eb3
00000010: 297c a633 0000 0000 0000 0000 3cd3 c633
00000020: 5043 9233 adcf 7d33 0000 0000 0000 0000
00000030: bd67 d732 0000 0000 9ef0 1cb3 582f 00b3
00000040: 0000 0000 0000 0000 4361 0fb3 0000 0000
00000050: 4a34 ea33 0000 0000 671b 6633 11c0 d833
00000060: 0000 0000 0000 0000 db02 b833 d415 8533
00000070: d0f6 a931 0000 0000 1bd1 25b3 3c68 dbb3
00000080: 0000 0000 0000 0000 2763 1931 f9f3 6433
00000090: e0a1 25b2 19a5 d631 4272 9bb2 6d09 e9b3
000000a0: 0000 0000 0000 0000 4611 c32d d067 8733
000000b0: def7 06b4 0000 0000 0000 0000 1a71 0b33
000000c0: 0000 0000 0000 0000 0000 0000 0000 0000
000000d0: cce6 76b1 de51 cab2 7885 e432 0000 0000
000000e0: 0000 0000 21e8 8bb3 0000 0000 4cce 5bb3
000000f0: ec57 1e32 c5d2 d533 0000 0000 cd42 1e33

layers.2.weight f4 [64, 64]
-0.03157473 0.12122434 0.16125478 0.061105415 -0.020212144 0.122676514 -0.16251412 -0.054938115
0.060404636 -0.056843378 0.06784649 -0.018995687 -0.079609275 0.0105031775 0.024096819 0.02886919
0.1658877 -0.02667553 -0.022548607 0.0014703453 0.15229023 0.042571772 -0.00011691734 -0.19535987
0.12744974 -0.14279686 -0.044002526 -0.21213335 -0.0681402 0.052161757 0.019772684 0.030184368
0.13803145 -0.07858985 -0.17444463 -0.09214413 0.12644066 -0.051677853 0.0684414 0.12087452
-0.18648534 -0.034959316 -0.11258165 0.17909233 -0.072440565 0.08277466 0.18379533 0.12831412
0.16056535 0.073320106 0.036674544 -0.11851196 -0.1705531 -0.120282136 -0.0043359557 -0.095762424
0.1267424 0.20983279 -0.20713075 0.21290556 0.092945 -0.019137949 -0.05509341 -0.034658454
0.18213487 -0.09499136 -0.10391497 -0.048268124 0.03790979 -0.14346726 -0.024790013 0.14833239
-0.044436615 -0.013160841 0.20377207 0.0045837793 -0.19316974 -0.020343412 -0.14357589 0.110558845
0.03410368 0.07612362 -0.06981418 -0.10130568 0.1334246 -0.064642824 -0.1469413 0.09945709
0.092179514 0.039283376 0.18182887 0.17277902 -0.15401307 0.086523324 0.046252448 0.14447886
0.21386166 0.008205894 0.16097295 0.20710813 0.077530675 -0.05485488 -0.07915712 -0.11785694
-0.11631944 -0.09629689 -0.07342045 0.1660446 0.13445379 0.18517222 -0.07164186 0.02718656
-0.04621593 0.10032365 0.21025148 -0.17530473 0.088693544 0.03246059 -0.13917391 -0.011400035
-0.07345844 0.14813587 0.20541961 -0.17686722 0.18691455 -0.17537291 0.18610345 0.0435164
0.17402382 -0.029585637 -0.0124280555 -0.10134607 -0.06625133 -0.16676666 -0.00911323 0.07896246
-0.19506113 -0.21225828 0.075992376 0.19348285 -0.07390147 0.040926076 0.09908105 -0.061934445
-0.07089336 -0.0919392 0.20657265 -0.002442927 0.13889432 -0.12638132 -0.12733999 -0.010421232
-0.037104636 0.032091644 0.004435116 -0.1200603 0.02340378 0.014861975 0.12590796 0.025819581
0.14193985 -0.15175915 -0.14926094 -0.056800563 0.17357945 -0.1977924 -0.048482087 -0.18027315
-0.17121796 0.19008367 0.19127074 0.026024742 -0.13922703 -0.10997669 -0.025077712 0.18422878
-0.16502047 0.18253551 -0.0060880124 0.15616597 -0.026365092 0.036837146 -0.014897334 0.15225026
-0.19253798 -0.07775145 0.025155606 0.062053997 0.1676005 0.10435035 0.18108383 0.010794955
-0.2158978 0.20792893 0.14832598 -0.17182374 -0.054375622 -0.086250775 -0.101207465 0.0034275623
0.108731024 0.11933386 -0.14532128 -0.19766113 0.02965731 0.20941345 0.17276187 0.1356515
0.1061813 0.21503404 0.120078094 0.16656604 -0.14800192 -0.023731418 -0.13425028 0.17315374
0.121143125 0.087058865 0.03144444 -0.14661625 0.11317828 -0.07187689 0.09322106 -0.10545454
-0.14293072 -0.19469275 0.20874137 -0.0421097 -0.10902816 0.046002768 -0.18642314 0.09462732
-0.028839998 0.15851581 -0.13127224 -0.16994269 0.16648082 -0.15733588 -0.04928123 -0.023483692
-0.19017774 0.116483435 0.005827813 0.12720205 -0.10584256 -0.13987924 -0.049256098 -0.012948028
0.09558646 -0.119922586 -0.16121702 0.09440069 -0.11295321 0.14243326 -0.07278168 0.20399436
00000000: 8154 01bd 7744 f83d f91f 253e ac49 7a3d
00000010: f093 a5bc d33d fb3d 1a6a 26be ca06 61bd
00000020: da6a 773d 9ad4 68bd 1af3 8a3d d89c 9bbc
00000030: 300a a3bd 8515 2c3c b166 c53c 147f ec3c
00000040: 77de 293e a486 dabc dbb7 b8bc 9ab8 c03a
00000050: f8f1 1b3e bd5f 2e3d 8531 f5b8 6b0c 48be
00000060: 2f82 023e 5739 12be fe3b 34bd 7c39 59be
00000070: 178d 8bbd 91a7 553d 53fa a13c 3545 f73c
00000080: 1e58 0d3e b7f3 a0bd 9da1 32be 10b6 bcbd
00000090: a979 013e 28ac 53bd 012b 8c3d 0f8d f73d
000000a0: 03f6 3ebe 8031 0fbd 3591 e6bd fb63 373e
000000b0: b85b 94bd c385 a93d d834 3c3e c764 033e
000000c0: 3e6b 243e da28 963d 0c38 163d 66b6 f2bd
000000d0: 79a5 2ebe 7b56 f6bd a214 8ebb 171f c4bd
000000e0: c2c8 013e 68de 563e 151a 54be ea03 5a3e
000000f0: f359 be3d 30c7 9cbc a1a9 61bd 06f6 0dbd
00000100: 9081 3a3e d58a c2bd 5fd1 d4bd ccb4 45bd
00000110: 4c47 1b3d 15e9 12be 6d14 cbbc 72e4 173e
00000120: 2b03 36bd 91a0 57bc a0a9 503e 8733 963b
00000130: 4ace 45be 3aa7 a6bc 8f05 13be ad6c e23d
00000140: 4db0 0b3d b3e6 9b3d bdfa 8ebd 5a79 cfbd
00000150: 75a0 083e 7563 84bd c877 16be 29b0 cb3d
00000160: 9dc8 bc3d 9be7 203d 5931 3a3e fcec 303e
00000170: 9ab5 1dbe 2433 b13d 3573 3d3d 44f2 133e
00000180: 8dfe 5a3e 0472 063c 18d6 243e 2714 543e
00000190: 67c8 9e3d 83af 60bd 211d a2bd fb5e f1bd
000001a0: e338 eebd 4e37 c5bd 765d 96bd 9807 2a3e
000001b0: 41ae 093e c99d 3d3e f8b8 92bd 59b6 de3c
000001c0: ea4c 3dbd 7c76 cd3d 2a4c 573e 1583 33be
000001d0: f6a4 b53d 65f5 043d 9b83 0ebe 36c7 3abc
000001e0: 6171 96bd eeb0 173e 8559 523e ae1c 35be
000001f0: 8766 3f3e f594 33be e791 3e3e 413e 323d
00000200: 4d33 323e 945d f2bc 0b9f 4bbc 878e cfbd
00000210: c7ae 87bd e1c4 2abe a84f 15bc 12b7 a13d
00000220: 1bbe 47be 3c5a 59be e4a1 9b3d 5e20 463e
00000230: a759 97bd 1aa2 273d 01eb ca3d f9ae 7dbd
00000240: 8a30 91bd 9f4a bcbd c887 533e 8419 20bb
00000250: 503a 0e3e 1b6a 01be 6a65 02be d1bd 2abc
00000260: 08fb 17bd 8772 033d 7354 913b 2de2 f5bd
00000270: 49b9 bf3c a47f 733c 04ee 003e 9683 d33c
00000280: ae58 113e c066 1bbe dcd7 18be b5a7 68bd
00000290: d0be 313e 178a 4abe 2795 46bd 8699 38be
000002a0: c353 2fbe 4ba5 423e 7adc 433e d731 d53c
000002b0: 8891 0ebe 753b e1bd c66f cdbc 78a6 3c3e
000002c0: 20fb 28be 97ea 3a3e f37d c7bb f9e9 1f3e
000002d0: 9bfb d7bc 8ce2 163d f313 74bc 7ee7 1b3e
000002e0: ad28 45be 273c 9fbd 2113 ce3c 552c 7e3d
000002f0: 779f 2b3e a3b5 d53d 0a6e 393e 53dd 303c
00000300: 5014 5dbe 52eb 543e c4e2 173e 90f2 2fbe
00000310: f9b8 5ebd 3fa4 b0bd dc45 cfbd f4a0 603b
00000320: 5fae de3d 5065 f43d 1acf 14be ae67 4abe
00000330: e3f3 f23c 7b70 563e 7de8 303e 3ae8 0a3e
00000340: 9575 d93d e231 5c3e 81eb f53d 4a90 2a3e
00000350: d18d 17be 6468 c2bc e878 09be 374f 313e
00000360: e319 f83d eb4b b23d e3cb 003d 9222 16be
00000370: 04ca e73d 3134 93bd afea be3d 8df8 d7bd
00000380: 6e5c 12be 895d 47be 4cc0 553e 397b 2cbd
00000390: 284a dfbd 666d 3c3d b5e5 3ebe f8cb c13d
000003a0: dc41 ecbc f851 223e 3b6c 06be 7505 2ebe
000003b0: f379 2a3e a81c 21be 1ddb 49bd df60 c0bc
000003c0: f4bd 42be de8e ee3d 3df7 be3b 4141 023e
000003d0: fcc3 d8bd 813c 0fbe c3c0 49bd f723 54bc
000003e0: d5c2 c33d f999 f5bd 1316 25be 2655 c13d
000003f0: 0354 e7bd 06da 113e 900e 95bd e6e3 503e

layers.2.bias f4 [64]
2.755236e-07 -1.2409464e-08 -2.1886937e-07 -1.8689832e-07 0.0 0.0 -3.6147551e-07 0.0
-1.5035475e-07 0.0 6.607249e-08 -2.6803852e-07 0.0 -6.1965273e-09 4.2813822e-10 2.5550955e-07
2.6377015e-07 0.0 2.7029197e-08 1.8190643e-10 0.0 3.014891e-07 1.5671473e-07 -1.7922922e-07
-1.3467826e-07 -1.6109736e-08 0.0 0.0 0.0 -3.444606e-08 0.0 0.0
6.051818e-08 0.0 9.911839e-09 0.0 0.0 0.0 -4.3341717e-07 -3.1005904e-08
-4.1213195e-08 3.951013e-07 1.885096e-07 0.0 0.0 0.0 0.0 -1.103332e-07
2.7091937e-07 0.0 1.1910588e-07 0.0 0.0 -4.5918842e-08 -2.550036e-07 -2.53466e-08
-1.5372078e-07 0.0 0.0 -2.3589398e-07 2.6214772e-07 -2.910223e-07 3.6208823e-07 0.0
00000000: adeb 9334 6631 55b2 5b02 6bb4 38ae 48b4
00000010: 0000 0000 0000 0000 d110 c2b4 0000 0000
00000020: 3371 21b4 0000 0000 bce3 8d33 efe6 8fb4
00000030: 0000 0000 3be9 d4b1 195f eb2f f72c 8934
00000040: 4b9c 8d34 0000 0000 d52d e832 1c02 482f
00000050: 0000 0000 59dc a134 6b45 2834 2772 40b4
00000060: 149c 10b4 af61 8ab2 0000 0000 0000 0000
00000070: 0000 0000 d8f1 13b3 0000 0000 0000 0000
00000080: 39f6 8133 0000 0000 bb48 2a32 0000 0000
00000090: 0000 0000 0000 0000 67b0 e8b4 5a2b 05b3
000000a0: 6302 31b3 4f1e d434 2069 4a34 0000 0000
000000b0: 0000 0000 0000 0000 0000 0000 51f0 ecb3
000000c0: e072 9134 0000 0000 26c7 ff33 0000 0000
000000d0: 0000 0000 4d38 45b3 6ee7 88b4 c3b9 d9b2
000000e0: 720e 25b4 0000 0000 0000 0000 0b4a 7db4
000000f0: 4fbd 8c34 cd3d 9cb4 0765 c234 0000 0000

layers.3.weight f4 [64, 64]
0.1999108 -0.023030227 -0.14616112 -0.20478672 -0.15683708 -0.11782597 -0.034475446 -0.12491012
-0.05410829 -0.059733406 0.106013425 -0.09622439 0.028925456 -0.0532122 -0.17418128 0.13742864
-0.05477651 -0.14807189 0.045007635 -0.009023073 0.17973812 0.1205641 0.13790666 -0.19584896
0.10382254 -0.17465527 0.12223972 0.019772245 0.1707137 -0.007728701 0.20013689 0.035152916
-0.060266145 -0.15694752 0.175465 0.15021323 0.14645931 0.07960654 -0.19595501 0.13316594
0.20410125 0.027574478 -0.08704991 -0.087760404 0.16120651 -0.20267136 -0.1256046 0.15445578
-0.14520428 0.15240586 0.060989384 0.18933186 -0.10131713 -0.14492965 -0.09417117 -0.03872279
0.023407575 0.16436996 0.20727836 -0.051518142 -0.021171989 0.106771775 0.11814684 0.13220677
-0.029579934 0.046150424 -0.08859005 -0.0908177 -0.11042492 0.019625003 0.1746965 -0.036211573
-0.036160495 0.20726512 -0.16347791 0.06371815 0.20899212 0.034396928 -0.178934 0.013280564
-0.102530316 0.04854612 -0.037956376 -0.17226176 -0.1893064 0.17450722 -0.16021508 -0.06648493
0.014029861 0.17746171 0.026561555 -0.013659121 -0.028180305 -0.044016127 -0.0025582935 0.0849858
-0.09712577 0.21536417 -0.16853967 0.015089125 0.038896956 -0.17051099 0.11520913 0.17657737
0.11037967 0.15268543 0.048496075 -0.21212476 -0.11832701 0.12126437 0.12562534 -0.15791039
0.19778174 0.119788066 -0.11820581 0.17288162 -0.20304887 -0.20205851 0.16652733 0.18145455
-0.19423716 -0.18601048 -0.04624641 -0.10565794 -0.11381013 -0.13550656 0.123720534 -0.036022183
0.07067187 0.2143015 0.1668539 -0.09987603 0.17619982 0.18754745 0.02111796 -0.07720096
0.19547552 0.1898963 0.1231658 0.08876261 0.15676385 0.06198509 -0.034748223 0.026813118
0.17164284 -0.15863958 0.1861991 0.09338399 -0.18861157 -0.002338202 -0.18947528 -0.01628243
0.096013874 -0.09893388 -0.2120004 0.20520934 -0.10494581 -0.017186463 0.037849344 0.18891236
-0.16710018 0.15654285 -0.18610658 -0.09552513 0.14758158 0.10910085 -0.009392273 -0.036859013
-0.095876284 -0.05410004 -0.044990536 0.1718218 -0.009571607 0.20662245 0.111026466 -0.18869676
0.17835175 -0.03032164 -0.1652703 0.0690044 0.097636744 0.15677974 0.12692425 0.054585997
0.019722717 0.19846013 -0.03227638 -0.08010918 0.16228193 -0.15105478 -0.11200649 -0.20897071
0.19105251 -0.07867783 0.120094426 0.14828557 -0.14050728 0.07583346 -0.20319691 0.14590935
-0.21020709 -0.15920441 0.16895135 -0.1649808 0.19808663 -0.052007705 0.12790167 0.04180661
0.15421396 -0.18578285 0.1880329 -0.09028747 -0.05936593 -0.20047209 -0.12541665 -0.17668162
-0.1937605 -0.13116309 0.07371031 -0.16239569 -0.16083777 0.066841595 0.0012626454 -0.029836558
-0.20807485 0.17329274 -0.041819476 -0.015200132 0.016489638 0.027884934 -0.11044324 -0.10810333
0.10260397 0.14777066 0.13575749 -0.17118546 -0.17728037 0.10039462 0.0065748235 0.056522623
-0.1535838 -0.0028380202 -0.06111977 -0.09487193 -0.10985246 -0.10747811 -0.112348095 0.009060758
0.08312916 0.20483357 0.08434143 0.065516554 -0.123699896 -0.13035916 0.12233927 -0.0151896
00000000: 6bb5 4c3e e3a9 bcbc 43ab 15be 9cb3 51be
00000010: e699 20be be4e f1bd 2036 0dbd e1d0 ffbd
00000020: a7a0 5dbd 04ab 74bd 911d d93d 4b11 c5bd
00000030: 14f5 ec3c 09f5 59bd 945c 32be 18ba 0c3e
00000040: 555d 60bd 28a0 17be ed59 383d 83d5 13bc
00000050: 450d 383e 50ea f63d 6737 0d3e a18c 48be
00000060: e9a0 d43d d5d8 32be d158 fa3d 67f9 a13c
00000070: 92cf 2e3e 0b41 fdbb aff0 4c3e 81fc 0f3d
00000080: a2d9 76bd dab6 20be 19ad 333e 7fd1 193e
00000090: 6ef9 153e c108 a33d 6ea8 48be a75c 083e
000000a0: ebff 503e dfe3 e13c 3947 b2bd babb b3bd
000000b0: 5213 253e 1589 4fbe 7e9e 00be a829 1e3e
000000c0: 6eb0 14be 4810 1c3e 01d0 793d 36e0 413e
000000d0: 5b7f cfbd 7068 14be d0dc c0bd ca9b 1ebd
000000e0: 3ec1 bf3c 9950 283e c740 543e b004 53bd
000000f0: e170 adbc 29ab da3d f8f6 f13d 3661 073e
00000100: 9e51 f2bc 3a08 3d3d b36e b5bd a1fe b9bd
00000110: 7626 e2bd 9dc4 a03c a4e3 323e 9652 14bd
00000120: 071d 14bd 4f3d 543e c166 27be a97e 823d
00000130: 0802 563e cbe3 0c3d 793a 37be b996 593c
00000140: 6afb d1bd 4cd8 463d 2578 1bbd 6365 30be
00000150: 89d9 41be 05b2 323e 6c0f 24be 4029 88bd
00000160: 81dd 653c 86b8 353e 9e97 d93c 81ca 5fbc
00000170: 62da e6bc 414a 34bd 0ba9 27bb 090d ae3d
00000180: e0e9 c6bd 6d88 5c3e aa95 2cbe 6138 773c
00000190: 6a52 1f3d 6f9a 2ebe c4f2 eb3d b3d0 343e
000001a0: bd0e e23d 9259 1c3e d2a3 463d 3c37 59be
000001b0: 6e55 f2bd 7459 f83d eea3 003e 43b3 21be
000001c0: 4c87 4a3e 7253 f53d e315 f2bd e107 313e
000001d0: 0bec 4fbe 6de8 4ebe 2486 2a3e 39cf 393e
000001e0: 1be6 46be 8879 3ebe e06c 3dbd 3163 d8bd
000001f0: 4915 e9bd 3bc2 0abe 3161 fd3d ff8b 13bd
00000200: 6abc 903d da71 5b3e c0db 2a3e ce8b ccbd
00000210: ba6d 343e 700c 403e 92ff ac3c 891b 9ebd
00000220: bc2a 483e 2d74 423e 5a3e fc3d 2cc9 b53d
00000230: b486 203e 14e4 7d3d 2754 0ebd 2fa7 db3c
00000240: 24c3 2f3e 6a72 22be faaa 3e3e 1b40 bf3d
00000250: 6423 41be 853c 19bb cf05 42be bb62 85bc
00000260: eca2 c43d d99d cabd a216 59be 6622 523e
00000270: d4ed d6bd a0ca 8cbc ea07 1b3d 3e72 413e
00000280: 4f1c 2bbe c54c 203e b992 3ebe aea2 c3bd
00000290: a01f 173e 4470 df3d 0ce2 19bc 7af9 16bd
000002a0: c95a c4bd 0198 5dbd ff47 38bd 0ef2 2f3e
000002b0: 3bd2 1cbc d694 533e d861 e33d b939 41be
000002c0: d7a1 363e 1765 f8bc 9e3c 29be 2e52 8d3d
000002d0: c6f5 c73d de8a 203e 6ef8 013e 9195 5f3d
000002e0: 8991 a13c 2239 4b3e 3d34 04bd 4810 a4bd
000002f0: 3c2d 263e 1bae 1abe a963 e5bd 6bfc 55be
00000300: 45a3 433e d821 a1bd 11f4 f53d 2cd8 173e
00000310: 24e1 0fbe 934e 9b3d da12 50be 4369 153e
00000320: 8740 57be 7b06 23be 9501 2d3e baf0 28be
00000330: 39d7 4a3e 0806 55bd a8f8 023e 683d 2b3d
00000340: 44ea 1d3e dc3d 3ebe b28b 403e a3e8 b8bd
00000350: b029 73bd 8e48 4dbe 396d 00be 07ec 34be
00000360: 2769 46be 9e4f 06be 6ef5 963d 0e4b 26be
00000370: a8b2 24be 3fe4 883d 597f a53a cc6b f4bc
00000380: 9311 55be a773 313e e64a 2bbd f909 79bc
00000390: 4715 873c f26e e43c 1130 e2bd 4765 ddbd
000003a0: 0822 d23d 3151 173e 0304 0b3e 3e4b 2fbe
000003b0: fc88 35be b29b cd3d 9e71 d73b 4484 673d
000003c0: 1245 1dbe 14fe 39bb b958 7abd 374c c2bd
000003d0: 54fa e0bd 7c1d dcbd c216 e6bd 9373 143c
000003e0: 9f3f aa3d e4bf 513e 33bb ac3d 8b2d 863d
000003f0: 5f56 fdbd df7c 05be 038d fa3d cddd 78bc

layers.3.bias f4 [64]
-7.701463e-08 -4.6946468e-07 0.0 0.0 4.7034018e-07 0.0 -5.000618e-07 0.0
0.0 0.0 -6.782759e-07 0.0 -4.1231462e-07 -1.2226185e-08 1.8557854e-07 1.0274338e-06
-3.7798586e-07 8.67954e-08 -1.9795455e-07 7.65942e-07 0.0 3.186865e-08 9.119467e-07 0.0
-7.3404857e-07 -4.963258e-07 4.0354195e-07 0.0 0.0 0.0 8.24382e-07 0.0
5.690114e-07 0.0 0.0 0.0 1.13217205e-07 9.767627e-07 -1.0777826e-06 4.3303388e-08
-8.9941506e-07 3.889804e-07 6.3891326e-07 0.0 0.0 2.6200363e-08 7.1885495e-08 2.606845e-07
2.8187668e-07 3.1693645e-08 7.882622e-07 4.431374e-07 8.250363e-07 0.0 0.0 0.0
0.0 -2.2473334e-07 6.374626e-07 0.0 5.157541e-07 4.3735704e-07 -1.37613405e-08 -1.4705562e-07
00000000: 3e63 a5b3 bc0a fcb4 0000 0000 0000 0000
00000010: 1083 fc34 0000 0000 fc3b 06b5 0000 0000
00000020: 0000 0000 0000 0000 c412 36b5 0000 0000
00000030: 175c ddb4 550b 52b2 7143 4734 5be6 8935
00000040: fbed cab4 4764 ba33 558d 54b4 229b 4d35
00000050: 0000 0000 f4df 0833 80cc 7435 0000 0000
00000060: 6f0b 45b5 403b 05b5 62a6 d834 0000 0000
00000070: 0000 0000 0000 0000 1a4b 5d35 0000 0000
00000080: 2abe 1835 0000 0000 0000 0000 0000 0000
00000090: d121 f333 5019 8335 54a8 90b5 94fc 3933
000000a0: 556f 71b5 0fd5 d034 c981 2b35 0000 0000
000000b0: 0000 0000 350f e132 785f 9a33 34f4 8b34
000000c0: d654 9734 881f 0833 f798 5335 57e8 ed34
000000d0: 1078 5d35 0000 0000 0000 0000 0000 0000
000000e0: 0000 0000 3b4e 71b4 191e 2b35 0000 0000
000000f0: 5a72 0a35 e5cd ea34 046b 6cb2 57e6 1db4

layers.4.weight f4 [64, 64]
0.20122877 -0.036916688 0.02717714 -0.16256714 0.12398543 0.19075114 0.0033156776 -0.103135936
0.13094175 -0.21611361 0.07963152 0.18002017 0.059221886 -0.20143911 0.054575928 -0.02152188
0.21448055 0.15946099 0.0038642643 -0.115682155 -0.001379031 0.17949334 -0.0022850863 -0.017232468
0.06160078 -0.10384441 0.17116906 0.08998356 0.05281915 -0.029333506 0.15455154 0.16171499
0.109639205 0.12487405 -0.102165334 0.1955616 -0.08647248 0.06912411 0.14985561 0.15547138
-0.06176967 0.038048025 -0.05784238 -0.2028154 0.17177664 0.11423797 0.095063426 0.15211992
0.10947423 0.030728433 -0.10018806 -0.0065939054 0.023861075 0.17602274 0.081636384 -0.09442198
-0.19040169 -0.12928048 0.18046388 0.0029270637 0.17403147 -0.06385452 0.13325049 -0.042397432
-0.18817745 -0.18596563 -0.082161225 0.12634438 0.15357952 0.10962323 -0.046348356 0.12873067
-0.17423451 0.03875756 0.064785756 0.19572225 -0.20825449 -0.19919398 0.022547012 0.11512087
0.0401648 0.19885167 0.15843707 0.07368073 -0.023251323 0.062012188 0.1170212 -0.18431027
-0.17784204 0.20750041 -0.04300505 -0.10388758 -0.0138362255 0.07302387 -0.121668 0.06605358
0.13771574 -0.13960907 0.057405647 -0.14771569 -0.20429277 0.033499014 -0.1139254 0.16289222
-0.17198557 0.21085772 0.19557455 0.1872385 -0.12724426 -0.21616435 -0.18531474 -0.053485494
-0.035007942 0.007933603 0.09691331 0.13316502 0.059616823 0.18622348 -0.09481439 -0.17774938
0.08272139 -0.10315598 0.020574464 -0.012796626 0.13189718 -0.16771224 -0.16922756 0.08301469
0.019200461 0.08607243 -0.01189452 0.024728173 -0.06411667 -0.052419 -0.16081351 -0.0018567145
0.046232138 0.090001166 0.17367196 0.10146185 -0.065608874 -0.16849305 -0.038383394 -0.097876385
-0.204298 -0.1314124 -0.07138059 0.036679346 -0.00146699 -0.07182818 -0.20810306 0.096667156
-0.14475043 -0.063862525 0.092715636 -0.079403035 0.15416282 -0.08828583 0.043065123 -0.15842775
0.03883452 0.018897353 0.040628105 0.051870212 -0.15834902 0.028421083 -0.1284377 -0.16419533
-0.12469436 -0.1605934 0.06255026 0.06667783 -0.08838069 -0.12050201 0.15505835 -0.08436779
-0.030789318 0.030103195 0.10504556 0.19787712 -0.081629 0.19811167 0.16253883 -0.021832984
0.09902331 -0.038842805 0.15491705 -0.023452044 -0.14786312 0.1313093 -0.12169895 0.008737597
-0.12108688 -0.1805475 0.15977405 -0.1701551 -0.06644562 -0.19861196 -0.17028193 -0.095740594
0.21542323 0.0290481 -0.077033356 0.03490708 -0.19784373 0.14042114 0.10206541 0.112989075
0.15737347 -0.10142146 0.099676885 0.14039178 0.20502762 -0.1118755 0.042488046 0.08458585
0.15574747 0.18140374 -0.12679903 -0.02200707 0.21138051 0.05076195 -0.07498043 -0.18036374
-0.06158416 -0.12860826 0.022450788 -0.21059662 0.08638106 -0.040381804 0.053670608 -0.14550118
-0.08904097 0.1742063 0.1424621 0.0867043 -0.20058244 -0.045991514 -0.030006798 0.06246078
0.15560856 0.1969926 0.08228064 -0.14378384 -0.0026932026 -0.14944604 0.20620005 0.119476825
-0.043010328 -0.19099237 0.103116915 -0.1066185 -0.17476304 0.0493354 -0.052267678 0.18385795
00000000: ea0e 4e3e f435 17bd 98a2 de3c 0078 26be
00000010: 13ec fd3d 4454 433e d74b 593b ef38 d3bd
00000020: 9815 063e e34c 5dbe da15 a33d 3557 383e
00000030: a692 723d 0e46 4ebe 028b 5f3d a74e b0bc
00000040: caa0 5b3e be49 233e 993f 7d3b c4ea ecbd
00000050: 9ac0 b4ba 1acd 373e 63c1 15bb 1b2b 8dbc
00000060: 1951 7c3d 61ac d4bd f146 2f3e 4d49 b83d
00000070: e558 583d d24c f0bc c242 1e3e 9d98 253e
00000080: 858a e03d f7bd ff3d 0f3c d1bd 4d41 483e
00000090: 7c18 b1bd f190 8d3d c073 193e e433 1f3e
000000a0: 3202 7dbd 3fd8 1b3d 22ec 6cbd d7ae 4fbe
000000b0: 37e6 2f3e 99f5 e93d 9db0 c23d 53c5 1b3e
000000c0: 0634 e03d 32ba fb3c 662f cdbd b011 d8bb
000000d0: 4d78 c33c 4e3f 343e fa30 a73d 5060 c1bd
000000e0: a9f8 42be 1a62 04be 86cb 383e fbd3 3f3b
000000f0: 4e35 323e 29c6 82bd d172 083e eea8 2dbd
00000100: 97b1 40be c66d 3ebe 2544 a8bd 6c60 013e
00000110: f343 1d3e 2582 e03d c6d7 3dbd f9d1 033e
00000120: 886a 32be 3fc0 1e3d 65ae 843d 6a6b 483e
00000130: aa40 55be 82f9 4bbe 83b4 b83c 7ec4 eb3d
00000140: d883 243d c69f 4b3e 543d 223e ece5 963d
00000150: 8f79 bebc 7e00 7e3d d0a8 ef3d d5bb 3cbe
00000160: 391c 36be fd7a 543e 1026 30bd 03c3 d4bd
00000170: 56b1 62bc 8a8d 953d 132d f9bd 1947 873d
00000180: 5b05 0d3e aef5 0ebe 2f22 6b3d c842 17be
00000190: 2032 51be 4336 093d b851 e9bd 38cd 263e
000001a0: fc1c 30be 16eb 573e b244 483e 73bb 3f3e
000001b0: 524c 02be 305a 5dbe 26c3 3dbe 9b13 5bbd
000001c0: 7d64 0fbd f1fb 013c 7c7a c63d 695c 083e
000001d0: c530 743d 5eb1 3e3e 0c2e c2bd ef03 36be
000001e0: d569 a93d 7143 d3bd c78b a83c f1a8 51bc
000001f0: 0e10 073e c2bc 2bbe fd49 2dbe 9b03 aa3d
00000200: 494a 9d3c be46 b03d 3ce1 42bc bd92 ca3c
00000210: 9a4f 83bd 4eb5 56bd 4cac 24be 005d f3ba
00000220: e95d 3d3d 8852 b83d 10d7 313e 3bcb cf3d
00000230: f25d 86bd 7189 2cbe e837 1dbd 6a73 c8bd
00000240: 7f33 51be f990 06be fd2f 92bd 153d 163d
00000250: 0448 c0ba a71a 93bd f818 55be 6ef9 c53d
00000260: 7539 14be 5bca 82bd b2e1 bd3d 0f9e a2bd
00000270: dcdc 1d3e 34cf b4bd 0e65 303d e23a 22be
00000280: f210 1f3d 9fce 9a3c a869 263d dc75 543d
00000290: 3f26 22be 55d3 e83c 2c85 03be d222 28be
000002a0: c25f ffbd 9972 24be 5a1a 803d 638e 883d
000002b0: ef00 b5bd c2c9 f6bd 9ec7 1e3e 05c9 acbd
000002c0: e139 fcbc fa9a f63c 2022 d73d 4da0 4a3e
000002d0: 1b2d a7bd c9dd 4a3e 9470 263e 16db b2bc
000002e0: bccc ca3d a219 1fbd 93a2 1e3e 801e c0bc
000002f0: 6e69 17be f275 063e 4d3d f9bd 2328 0f3c
00000300: 66fc f7bd 72e1 38be cf9b 233e 233d 2ebe
00000310: a414 88bd ef60 4bbe 635e 2ebe a513 c4bd
00000320: e897 5c3e 48f6 ed3c aac3 9dbd bafa 0e3d
00000330: 8c97 4abe 8fca 0f3e ab07 d13d d166 e73d
00000340: 8326 213e 0eb6 cfbd 6523 cc3d ddc2 0f3e
00000350: c3f2 513e fb1e e5bd f207 2e3d 593b ad3d
00000360: 447c 1f3e e7c1 393e 9bd7 01be 2c48 b4bc
00000370: 2274 583e c3eb 4f3d 578f 99bd 46b1 38be
00000380: ac3f 7cbd e2b1 03be b7ea b73c a4a6 57be
00000390: 8ee8 b03d 6467 25bd b6d5 5b3d 43fe 14be
000003a0: 1d5b b6bd 2363 323e 96e1 113e 0692 b13d
000003b0: 7c65 4dbe 9961 3cbd d1d0 f5bc e0d6 7f3d
000003c0: da57 1f3e 6eb8 493e c182 a83d 123c 13be
000003d0: 7180 30bb 6208 19be 1b26 533e 44b0 f43d
000003e0: 992b 30bd 8193 43be f62e d33d cd5a dabd
000003f0: 15f5 32be eb13 4a3d a216 56bd 4245 3c3e

layers.4.bias f4 [64]
0.0 0.0 0.0 0.0 1.2382017e-08 -1.6629448e-08 0.0 0.0
0.0 1.3706705e-07 0.0 -1.6636603e-06 0.0 0.0 2.199332e-07 -1.9610735e-07
0.0 3.2719395e-08 4.9241925e-07 1.1862552e-06 0.0 2.5879374e-06 -6.87298e-08 3.062428e-07
0.0 8.231045e-07 -2.5281368e-09 1.2656064e-06 0.0 -1.2314557e-06 0.0 0.0
2.271766e-08 -2.0040465e-08 -1.3876734e-06 0.0 0.0 0.0 0.0 -4.4271727e-07
1.4019399e-06 0.0 -3.121656e-08 0.0 0.0 0.0 3.1810274e-07 1.5555117e-06
0.0 0.0 2.1840677e-07 -5.9863237e-07 0.0 -3.0747933e-07 0.0 1.8162754e-07
2.7800102e-06 -3.4840565e-07 3.2486216e-07 -3.058426e-06 -1.2989816e-06 1.5436833e-06 0.0 1.2226127e-06
00000000: 0000 0000 0000 0000 0000 0000 0000 0000
00000010: b0b8 5432 8bd8 8eb2 0000 0000 0000 0000
00000020: 0000 0000 b42c 1334 0000 0000 ef4a dfb5
00000030: 0000 0000 0000 0000 c726 6c34 9491 52b4
00000040: 0000 0000 5b87 0c33 cb2e 0435 6b37 9f35
00000050: 0000 0000 6dac 2d36 9b98 93b3 b169 a434
00000060: 0000 0000 4ff3 5c35 74bb 2db1 e8dd a935
00000070: 0000 0000 7f48 a5b5 0000 0000 0000 0000
00000080: aa24 c332 7325 acb2 1840 bab5 0000 0000
00000090: 0000 0000 0000 0000 0000 0000 99ae edb4
000000a0: 4a2a bc35 0000 0000 f812 06b3 0000 0000
000000b0: 0000 0000 0000 0000 b5c7 aa34 fac6 d035
000000c0: 0000 0000 0000 0000 3283 6a34 b4b1 20b5
000000d0: 0000 0000 a313 a5b4 0000 0000 6605 4334
000000e0: 3690 3a36 820c bbb4 b768 ae34 5c3f 4db6
000000f0: ab58 aeb5 8e30 cf35 0000 0000 a718 a435

layers.5.weight f4 [64, 64]
-0.20595522 -0.040272735 0.06650589 -0.039227266 -0.11376199 0.024897741 0.0667925 0.06043375
-0.01705984 -0.092605144 -0.20391028 0.17886056 0.06878322 -0.14120337 -0.022027794 0.18133083
0.10590084 -0.11103798 -0.008435444 -0.17602621 0.1379028 0.08948505 0.13282767 0.15177618
0.050922666 -0.07841009 -0.11750082 0.18965606 0.16727223 0.03352428 -0.09074208 -0.029055147
-0.042931892 0.014780649 0.17170213 -0.14935483 -0.1413736 0.062018044 0.10706402 -0.06125653
-0.041111983 -0.028352972 0.052479833 -0.10288803 0.0423902 -0.051992368 0.004607705 -0.1838925
0.068092585 -0.13409387 -0.20361331 -0.08287001 -0.16675593 -0.16411912 0.010117299 -0.09600751
-0.07663999 0.091137946 -0.008579385 0.19988254 0.028882094 -0.14810467 0.0016518123 -0.043944713
0.09686878 0.00063703174 0.12682502 0.20940915 -0.021041457 0.11818113 -0.00834 -0.1682376
0.049533516 -0.095682904 0.15050122 0.008205146 0.017012738 -0.088193744 0.11108234 0.04366228
-0.023018135 0.10288595 -0.0038435867 0.030270288 0.1822817 0.14561833 0.16876525 -0.045407884
0.004627062 -0.16831625 -0.09238749 -0.18500273 -0.05041055 -0.030850898 -0.13125366 -0.004371986
0.039639805 -0.044105817 -0.059904963 -0.1331466 0.13059424 0.016027665 0.16000247 0.083448656
-0.19209015 -0.12933907 -0.02384182 -0.0399521 0.06321927 0.03629721 0.13083133 0.07986435
0.16672888 0.040546212 -0.16350624 0.19258147 -0.09620759 0.16705635 0.059837934 -0.022497969
-0.14872214 -0.13799112 0.04778861 0.16963243 0.04273205 -0.044110384 -0.011675397 0.07054496
0.20032911 -0.09070073 -0.06707091 -0.17060718 0.1722984 0.11752918 -0.10465983 -0.06026134
-0.18127087 -0.044203762 0.1506161 -0.008243498 -0.17069624 0.026389044 -0.074293256 0.052879028
0.16927247 -0.17357366 0.20392132 -0.015006612 0.13853748 -0.16083671 -0.17518753 0.08199359
-0.061794143 0.06486233 0.052324254 0.1317603 0.06567355 0.070559666 0.004386878 -0.14840515
0.15554228 -0.19120014 0.029147364 0.19964808 -0.1514375 0.12668107 0.028328685 -0.0903803
-0.09271442 -0.020500539 -0.050863817 0.05506208 -0.014819596 0.1865805 -0.16572651 0.16657725
0.1758757 -0.028273968 -0.19265957 -0.16537955 -0.20510827 0.0938894 -0.13547914 0.067239836
-0.0769671 0.12811369 0.112973146 -0.11795148 0.14353003 0.13947248 -0.16388196 -0.0021871028
0.060129195 -0.21488866 0.07290687 0.21108481 0.039230596 0.09036768 -0.08740585 -0.055020683
-0.12505683 -0.122861594 0.09016578 0.023821896 0.17364235 -0.07643524 -0.21428424 0.20354347
-0.12909138 0.19105777 0.079384446 -0.1096258 0.007018086 0.09378776 -0.1873769 0.019317042
-0.18031058 -0.055114243 0.08783647 -0.19889042 0.2049719 -0.18941593 -0.15416008 -0.013889264
0.08176949 0.1764395 0.20833641 -0.19211465 0.17249767 0.15145196 -0.090594806 0.028498279
0.1374816 -0.06389553 0.19621664 0.05152039 -0.19551845 -0.0040433784 -0.1960493 -0.1758823
-0.065993674 -0.048544675 -0.07070428 0.14765935 -0.021974757 0.13225012 -0.032349195 -0.07995778
0.17385377 -0.076539434 -0.1861537 0.20020457 0.0328571 -0.005007598 -0.16699082 -0.010195657
00000000: ede5 52be 06f5 24bd 3d34 883d c5ac 20bd
00000010: 0cfc e8bd 59f6 cb3c 82ca 883d 6189 773d
00000020: 14c1 8bbc c4a7 bdbd dbcd 50be 3927 373e
00000030: 38de 8c3d 9e97 10be a273 b4bc caae 393e
00000040: 8ae2 d83d e167 e3bd d134 0abc 3740 34be
00000050: 6436 0d3e f043 b73d fa03 083e 376b 1b3e
00000060: 4994 503d 7895 a0bd 45a4 f0bd 3335 423e
00000070: 6949 2b3e c150 093d fcd6 b9bd 0f05 eebc
00000080: 5ad9 2fbd 892a 723c afd2 2f3e 79f0 18be
00000090: 3ec4 10be a206 7e3d 6244 db3d 21e8 7abd
000000a0: 0a65 28bd 7e44 e8bc 18f5 563d f6b6 d2bd
000000b0: 59a1 2d3d f3f5 54bd 3bfc 963b 514e 3cbe
000000c0: 2074 8b3d e74f 09be 0280 50be c0b7 a9bd
000000d0: 11c2 2abe d80e 28be 07c3 253c 969f c4bd
000000e0: 6df5 9cbd 88a6 ba3d 8c90 0cbc 02ae 4c3e
000000f0: 249a ec3c c0a8 17be a081 d83a 5fff 33bd
00000100: 2463 c63d 7afe 263a 6bde 013e 5a6f 563e
00000110: 225f acbc f308 f23d 7fa4 08bc 7a46 2cbe
00000120: a8e3 4a3d 66f5 c3bd fe1c 1a3e e06e 063c
00000130: 4c5e 8b3c ec9e b4bd 237f e33d 38d7 323d
00000140: 8790 bcbc deb5 d23d afe4 7bbb 65f9 f73c
00000150: 0ea8 3a3e f91c 153e ccd0 2c3e 9efd 39bd
00000160: 9c9e 973b 185b 2cbe a735 bdbd 5b71 3dbe
00000170: 4b7b 4ebd 06bb fcbc 5c67 06be e042 8fbb
00000180: 595d 223d 4da8 34bd e85e 75bd 9557 08be
00000190: 7fba 053e 734c 833c b0d7 233e 21e7 aa3d
000001a0: 48b3 44be 7671 04be ec4f c3bc d0a4 23bd
000001b0: 1b79 813d 62ac 143d a6f8 053e ec8f a33d
000001c0: faba 2a3e c913 263d 2e6e 27be 1434 453e
000001d0: 7c08 c5bd d210 2b3e 9f18 753d a94d b8bc
000001e0: 9e4a 18be 8b4d 0dbe fdbd 433d 20b4 2d3e
000001f0: cd07 2f3d 17ad 34bd 2a4a 3fbc e079 903d
00000200: 1323 4d3e 4ec1 b9bd 795c 89bd a6b3 2ebe
00000210: fe6e 303e 24b3 f03d e557 d6bd 98d4 76bd
00000220: 129f 39be 010f 35bd 1b3b 1a3e bd0f 07bc
00000230: ffca 2ebe d62d d83c 1027 98bd ae97 583d
00000240: c355 2d3e 4bbd 31be c0d0 503e 4bde 75bc
00000250: c5dc 0d3e 61b2 24be 5c64 33be 41ec a73d
00000260: db1b 7dbd 8bd6 843d f551 563d 2cec 063e
00000270: db7f 863d 9681 903d cdbf 8f3b 85f7 17be
00000280: 7a46 1f3e f8c9 43be 74c6 ee3c 8c70 4c3e
00000290: 6f12 1bbe afb8 013e 8f11 e83c 4f19 b9bd
000002a0: 0fe1 bdbd bff0 a7bc 9456 50bd c788 613d
000002b0: e4cd 72bc f50e 3f3e 36b4 29be 3a93 2a3e
000002c0: c218 343e cf9e e7bc 8d48 45be 4259 29be
000002d0: e707 52be 1649 c03d 0bbb 0abe 0ab5 893d
000002e0: eda0 9dbd 3c30 033e 775e e73d 8c90 f1bd
000002f0: 89f9 123e e0d1 0e3e acd0 27be 7f55 0fbb
00000300: 084a 763d c60b 5cbe 3250 953d 9e26 583e
00000310: 43b0 203d b112 b93d d701 b3bd 5e5d 61bd
00000320: e60e 00be dc9e fbbd d6a8 b83d 2326 c33c
00000330: 4dcf 313e 148a 9cbd 546d 5bbe b36d 503e
00000340: 8830 04be a6a4 433e 5094 a23d 7e83 e0bd
00000350: f9f7 e53b cc13 c03d bbdf 3fbe c63e 9e3c
00000360: 56a3 38be 79bf 61bd 9be3 b33d eea9 4bbe
00000370: 27e4 513e 40f6 41be 24dc 1dbe cc8f 63bc
00000380: c376 a73d 8eac 343e 2456 553e b4b9 44be
00000390: 3ba3 303e 3916 1b3e c589 b9bd 3975 e93c
000003a0: fac7 0c3e a9db 82bd 04ed 483e 0b07 533d
000003b0: fd35 48be 517e 84bb 26c1 48be 7d1a 34be
000003c0: b127 87bd c8d6 46bd 68cd 90bd 0334 173e
000003d0: 6804 b4bc 936c 073e 9780 04bd e8c0 a3bd
000003e0: b906 323e b5c0 9cbd 139f 3ebe 6d02 4d3e
000003f0: 2b95 063d c716 a4bb a4ff 2abe af0b 27bc

layers.5.bias f4 [64]
3.7083623e-06 5.7000545e-07 3.8642493e-06 2.432949e-06 0.0 0.0 -2.8887848e-06 4.510251e-06
0.0 0.0 2.9897815e-06 0.0 -7.3234105e-08 0.0 0.0 -7.82602e-08
2.3438959e-06 8.035971e-07 -2.883439e-06 4.006082e-06 3.797491e-07 0.0 1.1316932e-06 0.0
0.0 -2.0662915e-06 -3.0835542e-07 0.0 0.0 0.0 1.4038014e-06 2.3823549e-07
-4.0612526e-06 0.0 0.0 -1.9812112e-06 0.0 3.883526e-06 0.0 1.7535847e-06
0.0 4.5750057e-06 0.0 3.4695027e-08 2.9023909e-06 -3.6924964e-06 0.0 -6.7735897e-07
0.0 0.0 -2.7837082e-06 0.0 4.0308709e-07 1.8388888e-06 -2.7356718e-06 0.0
0.0 -1.4812202e-06 -4.886225e-07 0.0 4.2090037e-06 0.0 7.7468593e-07 0.0
00000000: 2edd 7836 7a02 1935 a6a9 8136 bf45 2336
00000010: 0000 0000 0000 0000 f2dc 41b6 c356 9736
00000020: 0000 0000 0000 0000 0ea4 4836 0000 0000
00000030: e044 9db3 0000 0000 0000 0000 0010 a8b3
00000040: d34b 1d36 c6b6 5735 1b81 41b6 fb6b 8636
00000050: 52e0 cb34 0000 0000 afe4 9735 0000 0000
00000060: 0000 0000 9eaa 0ab6 0c8c a5b4 0000 0000
00000070: 0000 0000 0000 0000 406a bc35 accd 7f34
00000080: e545 88b6 0000 0000 0000 0000 f3f4 04b6
00000090: 0000 0000 3c4f 8236 0000 0000 b65c eb35
000000a0: 0000 0000 0083 9936 0000 0000 9603 1533
000000b0: b2c6 4236 9bcc 77b6 0000 0000 c1d3 35b5
000000c0: 0000 0000 0000 0000 becf 3ab6 0000 0000
000000d0: de67 d834 bdcf f635 7c96 37b6 0000 0000
000000e0: 0000 0000 57ce c6b5 e229 03b5 0000 0000
000000f0: 113b 8d36 0000 0000 03f4 4f35 0000 0000

layers.6.weight f4 [64, 1]
0.23989017 0.036897972 0.24999009 0.25181586 0.23841116 0.21742322 -0.18677734 0.29179475
0.032705743 -0.20589226 0.2270681 0.07712516 -0.17805596 0.14048292 0.2885907 -0.2113435
0.20765904 0.0520194 -0.18647169 0.25913167 0.024605291 0.11330631 0.07325611 0.05767886
-0.24961285 -0.13730054 -0.019848553 -0.12815212 -0.048701048 0.1253182 0.09081893 0.01913268
-0.26264563 0.011913167 -0.30357397 -0.12806642 -0.01299186 0.2512705 -0.15229104 0.113452755
0.22813629 0.29599595 0.028836966 0.0023430479 0.18778528 -0.2388044 -0.25257108 -0.043794807
-0.28835917 -0.033044998 -0.18002021 0.103699416 0.13576564 0.11895818 -0.17692137 -0.061645713
0.14928767 -0.09579467 -0.031577628 -0.27971476 0.27227712 -0.2543001 0.05012924 -0.26902077
00000000: c5a5 753e 5422 173d 67fd 7f3e 02ee 803e
00000010: 0e22 743e 31a4 5e3e 8f42 3fbe 1f66 953e
00000020: 75f6 053d 6cd5 52be 8a84 683e ccf3 9d3d
00000030: 4d54 36be c1da 0f3e 29c2 933e 6e6a 58be
00000040: 92a4 543e 4b12 553d 6ff2 3ebe e8ac 843e
00000050: 0991 c93c 230d e83d 4d07 963d ab40 6c3d
00000060: 839a 7fbe 8398 0cbe 6f99 a2bc 4f3a 03be
00000070: c07a 47bd 6a53 003e 46ff b93d 23bc 9c3c
00000080: 7d79 86be 722f 433c 0c6e 9bbe d823 03be
00000090: cfdb 54bc 87a6 803e 2ff2 1bbe eb59 e83d
000000a0: 8f9c 693e c88c 973e 803b ec3c d28d 193b
000000b0: c94a 403e 2489 74be ff50 81be 2f62 33bd
000000c0: d0a3 93be 315a 07bd 3857 38be 5c60 d43d
000000d0: 2606 0b3e 59a0 f33d e02a 35be 3780 7cbd
000000e0: dede 183e ff2f c4bd 8b57 01bd c636 8fbe
000000f0: e867 8b3e 9f33 82be 5154 4d3d 17bd 89be
